Random Seed:  999
/mnt/mscteach_home/s1890135/EvolPokeGAN/experiments/experiment_results/PokeGAN_experiment /mnt/mscteach_home/s1890135/EvolPokeGAN/experiments/experiment_results/PokeGAN_experiment/result_loss /mnt/mscteach_home/s1890135/EvolPokeGAN/experiments/experiment_results/PokeGAN_experiment/saved_models /mnt/mscteach_home/s1890135/EvolPokeGAN/experiments/experiment_results/PokeGAN_experiment/outputs
Data loaded
Generator(
  (main): Sequential(
    (0): ConvTranspose2d(100, 512, kernel_size=(4, 4), stride=(1, 1), bias=False)
    (1): BatchNorm2d(512, eps=1e-05, momentum=0.1, affine=True, track_running_stats=True)
    (2): ReLU(inplace)
    (3): ConvTranspose2d(512, 256, kernel_size=(4, 4), stride=(2, 2), padding=(1, 1), bias=False)
    (4): BatchNorm2d(256, eps=1e-05, momentum=0.1, affine=True, track_running_stats=True)
    (5): ReLU(inplace)
    (6): ConvTranspose2d(256, 128, kernel_size=(4, 4), stride=(2, 2), padding=(1, 1), bias=False)
    (7): BatchNorm2d(128, eps=1e-05, momentum=0.1, affine=True, track_running_stats=True)
    (8): ReLU(inplace)
    (9): ConvTranspose2d(128, 64, kernel_size=(4, 4), stride=(2, 2), padding=(1, 1), bias=False)
    (10): BatchNorm2d(64, eps=1e-05, momentum=0.1, affine=True, track_running_stats=True)
    (11): ReLU(inplace)
    (12): ConvTranspose2d(64, 3, kernel_size=(4, 4), stride=(2, 2), padding=(1, 1), bias=False)
    (13): Tanh()
  )
)
Discriminator(
  (main): Sequential(
    (0): Conv2d(3, 64, kernel_size=(4, 4), stride=(2, 2), padding=(1, 1), bias=False)
    (1): LeakyReLU(negative_slope=0.2, inplace)
    (2): Conv2d(64, 128, kernel_size=(4, 4), stride=(2, 2), padding=(1, 1), bias=False)
    (3): BatchNorm2d(128, eps=1e-05, momentum=0.1, affine=True, track_running_stats=True)
    (4): LeakyReLU(negative_slope=0.2, inplace)
    (5): Conv2d(128, 256, kernel_size=(4, 4), stride=(2, 2), padding=(1, 1), bias=False)
    (6): BatchNorm2d(256, eps=1e-05, momentum=0.1, affine=True, track_running_stats=True)
    (7): LeakyReLU(negative_slope=0.2, inplace)
    (8): Conv2d(256, 512, kernel_size=(4, 4), stride=(2, 2), padding=(1, 1), bias=False)
    (9): BatchNorm2d(512, eps=1e-05, momentum=0.1, affine=True, track_running_stats=True)
    (10): LeakyReLU(negative_slope=0.2, inplace)
    (11): Conv2d(512, 1, kernel_size=(4, 4), stride=(1, 1), bias=False)
    (12): Sigmoid()
  )
)
Starting Training Loop...
[0/500][0/12]	Loss_D: 1.6889	Loss_G: 5.3347	D(x): 0.5643	D(G(z)): 0.5669 / 0.0071
[1/500][0/12]	Loss_D: 0.1648	Loss_G: 7.7278	D(x): 0.9592	D(G(z)): 0.0817 / 0.0007
[2/500][0/12]	Loss_D: 1.5541	Loss_G: 26.8427	D(x): 0.5069	D(G(z)): 0.0000 / 0.0000
[3/500][0/12]	Loss_D: 0.0071	Loss_G: 8.2863	D(x): 0.9937	D(G(z)): 0.0005 / 0.0007
…
